VGG/Tabular Late Fusion 
Model: "vgg16"

_________________________________________________________________

Layer (type)                 Output Shape              Param #   

=================================================================

input_1 (InputLayer)         (None, 224, 224, 3)       0         

_________________________________________________________________

block1_conv1 (Conv2D)        (None, 224, 224, 64)      1792      

_________________________________________________________________

block1_conv2 (Conv2D)        (None, 224, 224, 64)      36928     

_________________________________________________________________

block1_pool (MaxPooling2D)   (None, 112, 112, 64)      0         

_________________________________________________________________

block2_conv1 (Conv2D)        (None, 112, 112, 128)     73856     

_________________________________________________________________

block2_conv2 (Conv2D)        (None, 112, 112, 128)     147584    

_________________________________________________________________

block2_pool (MaxPooling2D)   (None, 56, 56, 128)       0         

_________________________________________________________________

block3_conv1 (Conv2D)        (None, 56, 56, 256)       295168    

_________________________________________________________________

block3_conv2 (Conv2D)        (None, 56, 56, 256)       590080    

_________________________________________________________________

block3_conv3 (Conv2D)        (None, 56, 56, 256)       590080    

_________________________________________________________________

block3_pool (MaxPooling2D)   (None, 28, 28, 256)       0         

_________________________________________________________________

block4_conv1 (Conv2D)        (None, 28, 28, 512)       1180160   

_________________________________________________________________

block4_conv2 (Conv2D)        (None, 28, 28, 512)       2359808   

_________________________________________________________________

block4_conv3 (Conv2D)        (None, 28, 28, 512)       2359808   

_________________________________________________________________

block4_pool (MaxPooling2D)   (None, 14, 14, 512)       0         

_________________________________________________________________

block5_conv1 (Conv2D)        (None, 14, 14, 512)       2359808   

_________________________________________________________________

block5_conv2 (Conv2D)        (None, 14, 14, 512)       2359808   

_________________________________________________________________

block5_conv3 (Conv2D)        (None, 14, 14, 512)       2359808   

_________________________________________________________________

block5_pool (MaxPooling2D)   (None, 7, 7, 512)         0         

=================================================================

Total params: 14,714,688

Trainable params: 0

Non-trainable params: 14,714,688

_________________________________________________________________

Model: "sequential_1"

_________________________________________________________________

Layer (type)                 Output Shape              Param #   

=================================================================

dense_1 (Dense)              (None, 12)                1068      

_________________________________________________________________

dropout_2 (Dropout)          (None, 12)                0         

_________________________________________________________________

dense_2 (Dense)              (None, 8)                 104       

_________________________________________________________________

dropout_3 (Dropout)          (None, 8)                 0         

_________________________________________________________________

dense_3 (Dense)              (None, 4)                 36        

=================================================================

Total params: 1,208

Trainable params: 1,208

Non-trainable params: 0

_________________________________________________________________

Model: "model_1"
__________________________________________________________________________________________________
Layer (type)                    Output Shape         Param #     Connected to                     
==================================================================================================
input_1 (InputLayer)            (None, 224, 224, 3)  0                                            
__________________________________________________________________________________________________
block1_conv1 (Conv2D)           (None, 224, 224, 64) 1792        input_1[0][0]                    
__________________________________________________________________________________________________
block1_conv2 (Conv2D)           (None, 224, 224, 64) 36928       block1_conv1[0][0]               
__________________________________________________________________________________________________
block1_pool (MaxPooling2D)      (None, 112, 112, 64) 0           block1_conv2[0][0]               
__________________________________________________________________________________________________
block2_conv1 (Conv2D)           (None, 112, 112, 128 73856       block1_pool[0][0]                
__________________________________________________________________________________________________
block2_conv2 (Conv2D)           (None, 112, 112, 128 147584      block2_conv1[0][0]               
__________________________________________________________________________________________________
block2_pool (MaxPooling2D)      (None, 56, 56, 128)  0           block2_conv2[0][0]               
__________________________________________________________________________________________________
block3_conv1 (Conv2D)           (None, 56, 56, 256)  295168      block2_pool[0][0]                
__________________________________________________________________________________________________
block3_conv2 (Conv2D)           (None, 56, 56, 256)  590080      block3_conv1[0][0]               
__________________________________________________________________________________________________
block3_conv3 (Conv2D)           (None, 56, 56, 256)  590080      block3_conv2[0][0]               
__________________________________________________________________________________________________
block3_pool (MaxPooling2D)      (None, 28, 28, 256)  0           block3_conv3[0][0]               
__________________________________________________________________________________________________
block4_conv1 (Conv2D)           (None, 28, 28, 512)  1180160     block3_pool[0][0]                
__________________________________________________________________________________________________
block4_conv2 (Conv2D)           (None, 28, 28, 512)  2359808     block4_conv1[0][0]               
__________________________________________________________________________________________________
block4_conv3 (Conv2D)           (None, 28, 28, 512)  2359808     block4_conv2[0][0]               
__________________________________________________________________________________________________
block4_pool (MaxPooling2D)      (None, 14, 14, 512)  0           block4_conv3[0][0]               
__________________________________________________________________________________________________
block5_conv1 (Conv2D)           (None, 14, 14, 512)  2359808     block4_pool[0][0]                
__________________________________________________________________________________________________
dense_1_input (InputLayer)      (None, 88)           0                                            
__________________________________________________________________________________________________
block5_conv2 (Conv2D)           (None, 14, 14, 512)  2359808     block5_conv1[0][0]               
__________________________________________________________________________________________________
dense_1 (Dense)                 (None, 12)           1068        dense_1_input[0][0]              
__________________________________________________________________________________________________
block5_conv3 (Conv2D)           (None, 14, 14, 512)  2359808     block5_conv2[0][0]               
__________________________________________________________________________________________________
dropout_2 (Dropout)             (None, 12)           0           dense_1[0][0]                    
__________________________________________________________________________________________________
block5_pool (MaxPooling2D)      (None, 7, 7, 512)    0           block5_conv3[0][0]               
__________________________________________________________________________________________________
dense_2 (Dense)                 (None, 8)            104         dropout_2[0][0]                  
__________________________________________________________________________________________________
global_average_pooling2d_1 (Glo (None, 512)          0           block5_pool[0][0]                
__________________________________________________________________________________________________
dropout_3 (Dropout)             (None, 8)            0           dense_2[0][0]                    
__________________________________________________________________________________________________
dropout_1 (Dropout)             (None, 512)          0           global_average_pooling2d_1[0][0] 
__________________________________________________________________________________________________
dense_3 (Dense)                 (None, 4)            36          dropout_3[0][0]                  
__________________________________________________________________________________________________
concatenate_1 (Concatenate)     (None, 516)          0           dropout_1[0][0]                  
                                                                 dense_3[0][0]                    
__________________________________________________________________________________________________
sequential_2 (Sequential)       (None, 516)          0           concatenate_1[0][0]              
__________________________________________________________________________________________________
dense_4 (Dense)                 (None, 516)          266772      sequential_2[1][0]               
__________________________________________________________________________________________________
dropout_4 (Dropout)             (None, 516)          0           dense_4[0][0]                    
__________________________________________________________________________________________________
dense_5 (Dense)                 (None, 258)          133386      dropout_4[0][0]                  
__________________________________________________________________________________________________
dropout_5 (Dropout)             (None, 258)          0           dense_5[0][0]                    
__________________________________________________________________________________________________
dense_6 (Dense)                 (None, 4)            1036        dropout_5[0][0]                  
==================================================================================================
Total params: 15,117,090
Trainable params: 402,402
Non-trainable params: 14,714,688
__________________________________________________________________________________________________
,val_loss,val_accuracy,loss,accuracy
0,1.125299096107483,0.800000011920929,1.9001598960378518,0.6766666769981384
…
